****Using Fake Training Data with Normal Distribution****
****Using Fake Training Data with Normal Distribution****
BetaVAE(
  (encoder): Sequential(
    (0): Sequential(
      (0): Conv2d(2, 32, kernel_size=(3, 1), stride=(2, 1), padding=(1, 0))
      (1): BatchNorm2d(32, eps=1e-05, momentum=0.1, affine=True, track_running_stats=True)
      (2): LeakyReLU(negative_slope=0.01)
    )
    (1): Sequential(
      (0): Conv2d(32, 64, kernel_size=(3, 1), stride=(2, 1), padding=(1, 0))
      (1): BatchNorm2d(64, eps=1e-05, momentum=0.1, affine=True, track_running_stats=True)
      (2): LeakyReLU(negative_slope=0.01)
    )
    (2): Sequential(
      (0): Conv2d(64, 128, kernel_size=(3, 1), stride=(2, 1), padding=(1, 0))
      (1): BatchNorm2d(128, eps=1e-05, momentum=0.1, affine=True, track_running_stats=True)
      (2): LeakyReLU(negative_slope=0.01)
    )
    (3): Sequential(
      (0): Conv2d(128, 256, kernel_size=(3, 1), stride=(2, 1), padding=(1, 0))
      (1): BatchNorm2d(256, eps=1e-05, momentum=0.1, affine=True, track_running_stats=True)
      (2): LeakyReLU(negative_slope=0.01)
    )
  )
  (fc_mu): Linear(in_features=2304, out_features=2304, bias=True)
  (fc_var): Linear(in_features=2304, out_features=2304, bias=True)
  (decoder_input): Linear(in_features=2304, out_features=2304, bias=True)
  (decoder): Sequential(
    (0): Sequential(
      (0): ConvTranspose2d(256, 128, kernel_size=(3, 1), stride=(2, 1), padding=(1, 0), output_padding=(1, 0))
      (1): BatchNorm2d(128, eps=1e-05, momentum=0.1, affine=True, track_running_stats=True)
      (2): LeakyReLU(negative_slope=0.01)
    )
    (1): Sequential(
      (0): ConvTranspose2d(128, 64, kernel_size=(3, 1), stride=(2, 1), padding=(1, 0), output_padding=(1, 0))
      (1): BatchNorm2d(64, eps=1e-05, momentum=0.1, affine=True, track_running_stats=True)
      (2): LeakyReLU(negative_slope=0.01)
    )
    (2): Sequential(
      (0): ConvTranspose2d(64, 32, kernel_size=(3, 1), stride=(2, 1), padding=(1, 0), output_padding=(1, 0))
      (1): BatchNorm2d(32, eps=1e-05, momentum=0.1, affine=True, track_running_stats=True)
      (2): LeakyReLU(negative_slope=0.01)
    )
  )
  (final_layer): Sequential(
    (0): ConvTranspose2d(32, 32, kernel_size=(3, 1), stride=(2, 1), padding=(1, 0), output_padding=(1, 0))
    (1): BatchNorm2d(32, eps=1e-05, momentum=0.1, affine=True, track_running_stats=True)
    (2): LeakyReLU(negative_slope=0.01)
    (3): Conv2d(32, 2, kernel_size=(3, 1), stride=(1, 1), padding=same)
    (4): Tanh()
  )
)
Epoch [1/30], Step [1/62], Loss: 293912704.0000
Epoch [1/30], Step [11/62], Loss: 124054808.0000
Epoch [1/30], Step [21/62], Loss: 20727892.0000
Epoch [1/30], Step [31/62], Loss: 17583748.0000
Epoch [1/30], Step [41/62], Loss: 10098481.0000
Epoch [1/30], Step [51/62], Loss: 22270334.0000
Epoch [1/30], Step [61/62], Loss: 18507412.0000
…
